weights/lprnet_ptsq_weights.pth (torch, 638642 bytes, 56 tensors)

cpu f8 [64]
000000 00 00 00 20 8f 4f 80 3f 00 00 00 00 4d 6c 83 3f
       0.007964246906340122 0.009483911097049713
000010 00 00 00 00 00 00 80 3e 00 00 00 00 00 00 80 3e
       1.1920928955078125e-07 1.1920928955078125e-07
000020 00 00 00 20 c2 32 95 3f 00 00 00 00 00 00 80 3e
       0.020701440051198006 1.1920928955078125e-07
000030 00 00 00 c0 d5 70 84 3f 00 00 00 c0 6c ea 9c 3f
       0.009980840608477592 0.02823800966143608
000040 00 00 00 80 b8 c8 96 3f 00 00 00 40 3c 9e 86 3f
       0.022250063717365265 0.01104399748146534
000050 00 00 00 00 00 00 80 3e 00 00 00 c0 45 66 a7 3f
       1.1920928955078125e-07 0.04570215195417404
000060 00 00 00 40 5c fb 92 3f 00 00 00 00 9c 98 84 3f
       0.018536988645792007 0.01005670428276062
000070 00 00 00 80 05 b2 96 3f 00 00 00 00 00 00 80 3e
       0.022163473069667816 1.1920928955078125e-07
000080 00 00 00 00 00 00 80 3e 00 00 00 c0 a6 0d 80 3f
       1.1920928955078125e-07 0.0078385379165411
000090 00 00 00 00 00 00 80 3e 00 00 00 00 ce 79 93 3f
       1.1920928955078125e-07 0.019019335508346558
0000a0 00 00 00 00 00 00 80 3e 00 00 00 60 36 cc 93 3f
       1.1920928955078125e-07 0.019333695992827415
0000b0 00 00 00 c0 37 aa 92 3f 00 00 00 60 8c f7 80 3f
       0.018227454274892807 0.00828466098755598
0000c0 00 00 00 c0 0b eb 82 3f 00 00 00 00 00 00 80 3e
       0.009237376973032951 1.1920928955078125e-07
0000d0 00 00 00 00 00 00 80 3e 00 00 00 00 00 00 80 3e
       1.1920928955078125e-07 1.1920928955078125e-07
0000e0 00 00 00 a0 0f 5a 87 3f 00 00 00 00 00 00 80 3e
       0.011402246542274952 1.1920928955078125e-07
0000f0 00 00 00 80 d7 ff a3 3f 00 00 00 40 9e 4a a0 3f
       0.0390612930059433 0.03181929141283035
000100 00 00 00 e0 28 42 95 3f 00 00 00 00 0b 88 7d 3f
       0.02076019160449505 0.007209818810224533
000110 00 00 00 80 b9 b5 96 3f 00 00 00 00 00 00 80 3e
       0.022177599370479584 1.1920928955078125e-07
000120 00 00 00 00 00 00 80 3e 00 00 00 00 00 00 80 3e
       1.1920928955078125e-07 1.1920928955078125e-07
000130 00 00 00 00 00 00 80 3e 00 00 00 00 00 00 80 3e
       1.1920928955078125e-07 1.1920928955078125e-07
000140 00 00 00 40 70 b3 8d 3f 00 00 00 60 37 0e 95 3f
       0.014502407982945442 0.02056204341351986
000150 00 00 00 00 00 00 80 3e 00 00 00 60 16 d1 8f 3f
       1.1920928955078125e-07 0.015535521320998669
000160 00 00 00 40 6c c0 7b 3f 00 00 00 00 00 00 80 3e
       0.0067753056064248085 1.1920928955078125e-07
000170 00 00 00 00 00 00 80 3e 00 00 00 80 a9 e0 8b 3f
       1.1920928955078125e-07 0.013612102717161179
000180 00 00 00 20 82 3c 8d 3f 00 00 00 00 00 00 80 3e
       0.014275566674768925 1.1920928955078125e-07
000190 00 00 00 c0 b7 b3 80 3f 00 00 00 00 00 00 80 3e
       0.008155284449458122 1.1920928955078125e-07
0001a0 00 00 00 20 04 3a 92 3f 00 00 00 40 57 ec 82 3f
       0.017799438908696175 0.009239846840500832
0001b0 00 00 00 00 00 00 80 3e 00 00 00 a0 1f c3 90 3f
       1.1920928955078125e-07 0.01636933721601963
0001c0 00 00 00 00 00 00 80 3e 00 00 00 00 00 00 80 3e
       1.1920928955078125e-07 1.1920928955078125e-07
0001d0 00 00 00 00 00 00 80 3e 00 00 00 00 00 00 80 3e
       1.1920928955078125e-07 1.1920928955078125e-07
0001e0 00 00 00 00 00 00 80 3e 00 00 00 00 00 00 80 3e
       1.1920928955078125e-07 1.1920928955078125e-07
0001f0 00 00 00 00 00 00 80 3e 00 00 00 00 00 00 80 3e
       1.1920928955078125e-07 1.1920928955078125e-07

backbone.0.bias f4 [64]
000000 14 84 cc 3e 90 60 a2 bd fe 0b 00 00 6a 52 00 80
       0.39944518 -0.07928574 4.302e-42 -2.9565e-41
000010 89 83 ad bf c8 00 00 80 cb 96 fd bf 3d 60 f2 bf
       -1.3555766 -2.8e-43 -1.9811643 -1.893562
000020 a1 df 06 c0 d0 c4 d4 3f d5 0c 00 80 ab 28 97 40
       -2.1073992 1.6622562 -4.603e-42 4.7237144
000030 43 7a 7d 3f dc d5 ba 3f b9 13 06 40 00 20 00 80
       0.9901468 1.4596515 2.0949538 -1.148e-41
000040 1d 10 00 80 35 de 97 be d7 5a 00 80 01 09 d9 bf
       -5.78e-42 -0.29661718 -3.2587e-41 -1.6955873
000050 55 27 00 00 33 ce 9b bf 99 14 d1 bf a4 46 7d 3d
       1.411e-41 -1.2172302 -1.6334411 0.061834946
000060 99 a0 57 be 35 3a 00 80 16 2f 00 80 46 2c 00 00
       -0.21057357 -2.0881e-41 -1.6891e-41 1.5882e-41
000070 21 6d 84 3e 4a 2d 00 00 32 10 92 c0 ad 5b 63 40
       0.2586451 1.6247e-41 -4.564477 3.5524704
000080 b6 35 aa bf 8d 12 e9 be 66 ed c3 bf 33 30 00 80
       -1.3297641 -0.45521966 -1.5306823 -1.729e-41
000090 09 57 00 00 c8 00 00 80 dc 1c 00 80 1a 20 00 80
       3.1222e-41 -2.8e-43 -1.0353e-41 -1.1516e-41
0000a0 66 a2 b3 bf 2f 34 40 c0 d5 12 00 80 2c 02 42 40
       -1.4033935 -3.003185 -6.756e-42 3.0313826
0000b0 cf b0 92 3c 8b 46 00 00 6f 5f 00 00 ad b4 dd 3f
       0.017906575 2.5306e-41 3.4235e-41 1.7320763
0000c0 8b d0 95 bf ee 34 00 00 6c bc 05 40 c4 30 00 80
       -1.1704267 1.8988e-41 2.0896254 -1.7494e-41
0000d0 ea 5a ae 3f 98 71 05 40 ac 19 00 00 95 b1 71 bf
       1.3621495 2.0850582 9.21e-42 -0.94411594
0000e0 90 38 00 80 e9 1a 00 00 b2 0f 00 80 a5 3d 00 80
       -2.0291e-41 9.654e-42 -5.63e-42 -2.2114e-41
0000f0 a9 4d 00 80 d7 00 00 00 06 4e 00 80 fa 4d 00 80
       -2.7859e-41 3.01e-43 -2.799e-41 -2.7973e-41

backbone.1.weight f4 [64]
000000 69 a7 49 bf a0 85 7a 3f 01 2f 00 80 a5 05 00 00
       -0.7877107 0.97860146 -1.6862e-41 2.025e-42
000010 54 a4 80 3f f3 53 00 80 7f 3e ff 3e 3c 6a 67 3f
       1.0050149 -3.0115e-41 0.49852368 0.90396476
000020 45 46 80 3f 6d c1 69 bf 32 27 00 00 38 97 2f bf
       1.0021445 -0.9131077 1.406e-41 -0.68590117
000030 6b 11 ab bf a1 72 21 bf f2 60 40 bf 27 36 00 00
       -1.336469 -0.63065535 -0.75147927 1.9426e-41
000040 4b 56 00 80 58 70 84 3f 78 34 00 00 83 f9 5f 3f
       -3.0956e-41 1.0346785 1.8822e-41 0.874901
000050 ee 0a 00 80 c0 19 53 3f 89 8c 0f 3f 15 5b 3b bf
       -3.921e-42 0.82461166 0.56073815 -0.73185855
000060 7f f7 6a 3f 74 58 00 00 9b 0f 00 80 8e 43 00 00
       0.917839 3.1731e-41 -5.598e-42 2.4234e-41
000070 83 54 54 c0 a2 13 00 00 d2 e4 02 3f 7c ff 04 bf
       -3.3176582 7.043e-42 0.511304 -0.5195234
000080 60 9a 6f 3f ec 41 b4 3f c6 4c 4b 3f c8 16 00 00
       0.9359493 1.4082618 0.7941402 8.172e-42
000090 f0 03 00 00 0b 18 00 80 6a 1a 00 80 c9 27 00 00
       1.413e-42 -8.625e-42 -9.476e-42 1.4272e-41
0000a0 ea 13 45 3f 57 00 16 3f 2b 40 00 00 79 e2 1d bf
       0.7698351 0.5859427 2.3019e-41 -0.61673695
0000b0 a2 29 2e 3f 03 38 00 80 63 39 00 80 55 d5 04 bf
       0.68032277 -2.0093e-41 -2.0586e-41 -0.5188802
0000c0 a5 b3 5d 3f 43 0e 00 80 5c 38 68 bf 8b 40 00 80
       0.8660224 -5.116e-42 -0.90711 -2.3154e-41
0000d0 a3 4a 43 bf 80 d1 27 bf a8 18 00 00 64 20 b2 3f
       -0.7628576 -0.65554047 8.845e-42 1.3916135
0000e0 c9 5a 00 00 02 3d 00 00 21 4d 00 00 8f 2d 00 00
       3.2568e-41 2.1885e-41 2.7669e-41 1.6343e-41
0000f0 76 3f 00 00 c8 21 00 00 2f 3e 00 80 8d 38 00 80
       2.2765e-41 1.2118e-41 -2.2307e-41 -2.0287e-41

backbone.1.bias f4 [64]
000000 cd ee 0e 3e 9e 3b e6 3c a6 e3 0e b8 84 11 1b b9
       0.13958283 0.0281046 -3.4067452e-05 -0.00014788477
000010 8f 4f 88 3f 5d ce 97 b6 fe bd 82 3f bc bb bc 3f
       1.0649279 -4.5241745e-06 1.0214231 1.4744792
000020 45 c9 3e 3f 7a 8b aa 3f d1 e9 87 b8 06 50 3f 40
       0.7452586 1.3323815 -6.480853e-05 2.9892592
000030 c8 f0 3a 3f 10 61 7f 3f e1 ff b5 3f db 57 99 b8
       0.73023653 0.9975748 1.4218713 -7.311973e-05
000040 53 fb 51 34 78 a3 24 3d 8e 2e 83 b8 3a b0 9b 3f
       1.9556073e-07 0.04019496 -6.255238e-05 1.2163155
000050 59 aa ba 3a b5 c6 13 3f 5c d0 4a 3f eb 62 58 3d
       0.0014241441 0.5772508 0.7922418 0.05282871
000060 1e 8c e3 bc ee 4b fd b9 89 b0 03 b9 6d 5c 91 3a
       -0.027776774 -0.00048312492 -0.00012558898 0.0011090167
000070 71 50 b0 3e d7 14 9a 39 2b fa 0d 40 d8 c5 cd 3f
       0.34436372 0.00029388696 2.218394 1.6076002
000080 73 2c 46 3f 7c 5d 2a 3e 8c 4a 85 3f 68 2e 1c b7
       0.77411574 0.16637224 1.0413375 -9.309129e-06
000090 f7 f0 c0 b8 2b 8a fb b7 15 cc b4 39 9a 80 d7 b8
       -9.200157e-05 -2.9985871e-05 0.00034484328 -0.00010275953
0000a0 ef ef 3f 3f af ed e3 3f 90 48 b9 b9 8c bb ee 3f
       0.74975485 1.780691 -0.00035340013 1.8650985
0000b0 ae 1e 12 3e ea d6 92 b9 9d 02 7c b9 38 86 48 3f
       0.14269516 -0.00028007413 -0.00024033566 0.783298
0000c0 c5 e6 12 3f 7c 7f b6 b9 aa 64 48 3f e0 51 d1 b8
       0.57383376 -0.00034808728 0.782786 -9.981147e-05
0000d0 e8 55 6f 3f cf c0 a6 3f 15 99 0c b8 d0 66 4b 3f
       0.9349046 1.302759 -3.352117e-05 0.79453754
0000e0 16 0d 89 b9 55 a1 0a b8 17 51 40 b9 48 c4 29 b9
       -0.00026140426 -3.3052016e-05 -0.00018340755 -0.00016190216
0000f0 35 b3 33 35 44 d4 c6 b8 98 7e f8 b8 4f 4c 9b b8
       6.6943477e-07 -9.480913e-05 -0.000118491414 -7.4051895e-05

backbone.1.running_mean f4 [64]
000000 00 00 00 00 00 00 00 00 00 00 00 00 00 00 00 00
       0.0 0.0 0.0 0.0
000010 00 00 00 00 00 00 00 00 00 00 00 00 00 00 00 00
       0.0 0.0 0.0 0.0
000020 00 00 00 00 00 00 00 00 00 00 00 00 00 00 00 00
       0.0 0.0 0.0 0.0
000030 00 00 00 00 00 00 00 00 00 00 00 00 00 00 00 00
       0.0 0.0 0.0 0.0
000040 00 00 00 00 00 00 00 00 00 00 00 00 00 00 00 00
       0.0 0.0 0.0 0.0
000050 00 00 00 00 00 00 00 00 00 00 00 00 00 00 00 00
       0.0 0.0 0.0 0.0
000060 00 00 00 00 00 00 00 00 00 00 00 00 00 00 00 00
       0.0 0.0 0.0 0.0
000070 00 00 00 00 00 00 00 00 00 00 00 00 00 00 00 00
       0.0 0.0 0.0 0.0
000080 00 00 00 00 00 00 00 00 00 00 00 00 00 00 00 00
       0.0 0.0 0.0 0.0
000090 00 00 00 00 00 00 00 00 00 00 00 00 00 00 00 00
       0.0 0.0 0.0 0.0
0000a0 00 00 00 00 00 00 00 00 00 00 00 00 00 00 00 00
       0.0 0.0 0.0 0.0
0000b0 00 00 00 00 00 00 00 00 00 00 00 00 00 00 00 00
       0.0 0.0 0.0 0.0
0000c0 00 00 00 00 00 00 00 00 00 00 00 00 00 00 00 00
       0.0 0.0 0.0 0.0
0000d0 00 00 00 00 00 00 00 00 00 00 00 00 00 00 00 00
       0.0 0.0 0.0 0.0
0000e0 00 00 00 00 00 00 00 00 00 00 00 00 00 00 00 00
       0.0 0.0 0.0 0.0
0000f0 00 00 00 00 00 00 00 00 00 00 00 00 00 00 00 00
       0.0 0.0 0.0 0.0

backbone.1.running_var f4 [64]
000000 00 00 80 3f 00 00 80 3f 00 00 80 3f 00 00 80 3f
       1.0 1.0 1.0 1.0
000010 00 00 80 3f 00 00 80 3f 00 00 80 3f 00 00 80 3f
       1.0 1.0 1.0 1.0
000020 00 00 80 3f 00 00 80 3f 00 00 80 3f 00 00 80 3f
       1.0 1.0 1.0 1.0
000030 00 00 80 3f 00 00 80 3f 00 00 80 3f 00 00 80 3f
       1.0 1.0 1.0 1.0
000040 00 00 80 3f 00 00 80 3f 00 00 80 3f 00 00 80 3f
       1.0 1.0 1.0 1.0
000050 00 00 80 3f 00 00 80 3f 00 00 80 3f 00 00 80 3f
       1.0 1.0 1.0 1.0
000060 00 00 80 3f 00 00 80 3f 00 00 80 3f 00 00 80 3f
       1.0 1.0 1.0 1.0
000070 00 00 80 3f 00 00 80 3f 00 00 80 3f 00 00 80 3f
       1.0 1.0 1.0 1.0
000080 00 00 80 3f 00 00 80 3f 00 00 80 3f 00 00 80 3f
       1.0 1.0 1.0 1.0
000090 00 00 80 3f 00 00 80 3f 00 00 80 3f 00 00 80 3f
       1.0 1.0 1.0 1.0
0000a0 00 00 80 3f 00 00 80 3f 00 00 80 3f 00 00 80 3f
       1.0 1.0 1.0 1.0
0000b0 00 00 80 3f 00 00 80 3f 00 00 80 3f 00 00 80 3f
       1.0 1.0 1.0 1.0
0000c0 00 00 80 3f 00 00 80 3f 00 00 80 3f 00 00 80 3f
       1.0 1.0 1.0 1.0
0000d0 00 00 80 3f 00 00 80 3f 00 00 80 3f 00 00 80 3f
       1.0 1.0 1.0 1.0
0000e0 00 00 80 3f 00 00 80 3f 00 00 80 3f 00 00 80 3f
       1.0 1.0 1.0 1.0
0000f0 00 00 80 3f 00 00 80 3f 00 00 80 3f 00 00 80 3f
       1.0 1.0 1.0 1.0

cpu f8 [32]
000000 00 00 00 a0 4a 80 86 3f 00 00 00 80 ab 89 80 3f
       0.010986884124577045 0.008075084537267685
000010 00 00 00 40 3e 7d 81 3f 00 00 00 80 7a dc 7e 3f
       0.008539663627743721 0.007534483447670937
000020 00 00 00 40 40 c3 7d 3f 00 00 00 40 8b 47 83 3f
       0.007266283966600895 0.00941380299627781
000030 00 00 00 e0 d7 aa 85 3f 00 00 00 c0 0c da 76 3f
       0.010579763911664486 0.005579042248427868
000040 00 00 00 20 f9 b4 85 3f 00 00 00 40 45 f6 85 3f
       0.010599085129797459 0.010723629966378212
000050 00 00 00 e0 07 30 8b 3f 00 00 00 e0 be b4 81 3f
       0.0132752051576972 0.008645526133477688
000060 00 00 00 e0 4a 7b 74 3f 00 00 00 20 7f 15 7c 3f
       0.005000393372029066 0.006856438238173723
000070 00 00 00 80 97 cc 76 3f 00 00 00 40 51 47 82 3f
       0.005566207692027092 0.008925089612603188
000080 00 00 00 e0 84 d3 82 3f 00 00 00 80 2b e6 82 3f
       0.009192503057420254 0.009228076785802841
000090 00 00 00 20 83 17 8b 3f 00 00 00 c0 f2 78 85 3f
       0.01322843972593546 0.010484596714377403
0000a0 00 00 00 60 15 5b 7d 3f 00 00 00 a0 18 29 73 3f
       0.007166942115873098 0.004677864257246256
0000b0 00 00 00 e0 67 98 7d 3f 00 00 00 e0 37 63 81 3f
       0.007225423585623503 0.00849002506583929
0000c0 00 00 00 80 f3 0b 84 3f 00 00 00 c0 0f 1a 82 3f
       0.009788420051336288 0.008838770911097527
0000d0 00 00 00 00 e2 bd 85 3f 00 00 00 00 65 3c 82 3f
       0.010616078972816467 0.00890425592660904
0000e0 00 00 00 20 90 13 83 3f 00 00 00 c0 58 e7 7e 3f
       0.00931465718895197 0.007544848136603832
0000f0 00 00 00 c0 08 c4 7f 3f 00 00 00 60 75 b1 7e 3f
       0.0077553121373057365 0.007493456359952688

backbone.4.block.0.bias f4 [32]
000000 13 91 bf 3e f6 0f 88 3e b3 de bc 3f 38 9c d1 bd
       0.3741537 0.26574677 1.4755462 -0.102348745
000010 2c a4 a5 be 6a ec 32 3f 1e f1 94 3f 24 79 43 3d
       -0.32351816 0.6989199 1.1636083 0.04772295
000020 cf 11 00 3f 43 93 8d be fb 0e aa 3e ef 92 99 3e
       0.50027174 -0.27651414 0.33214554 0.29994914
000030 8b 0a a1 3f 7e af 03 3f 2c a4 ac 3e 8a 59 8d 3d
       1.2581342 0.51439655 0.33719003 0.06901844
000040 3e 25 ab 3e c1 df 49 3e 8f 5b bd 3e 38 65 46 3f
       0.3342685 0.19714262 0.36983916 0.774982
000050 93 d6 4e bc 3a d3 5f 3f ef 6b df be 18 dd 88 bd
       -0.012624401 0.8743168 -0.43637034 -0.06682795
000060 f5 23 b5 3e e2 88 d0 bd 6d 81 35 3f e6 9a 8b 3e
       0.35378996 -0.10182358 0.70900613 0.27266616
000070 96 16 a7 3e 02 5e 8c be 13 fb 49 3e c6 1f 10 bf
       0.3263442 -0.27415472 0.19724683 -0.5629848

cpu f8 [32]
000000 00 00 00 a0 2a df 80 3f 00 00 00 40 29 5f 7c 3f
       0.008238156326115131 0.006926690228283405
000010 00 00 00 e0 62 1b 79 3f 00 00 00 60 80 22 81 3f
       0.006129633169621229 0.008366587571799755
000020 00 00 00 80 82 07 80 3f 00 00 00 20 b2 80 84 3f
       0.007826823741197586 0.010011092759668827
000030 00 00 00 80 75 07 80 3f 00 00 00 60 c5 da 7b 3f
       0.007826726883649826 0.006800433155149221
000040 00 00 00 40 d5 ba 7e 3f 00 00 00 20 2a 6d 75 3f
       0.0075023965910077095 0.005231060553342104
000050 00 00 00 c0 fe 1c 7c 3f 00 00 00 a0 a5 70 80 3f
       0.006863589398562908 0.008027357049286366
000060 00 00 00 80 36 70 80 3f 00 00 00 20 db b5 87 3f
       0.008026529103517532 0.011577331461012363
000070 00 00 00 c0 a6 f7 75 3f 00 00 00 80 cf 8c 87 3f
       0.005363131873309612 0.011499043554067612
000080 00 00 00 00 52 21 7d 3f 00 00 00 e0 75 c5 7c 3f
       0.00711185485124588 0.0070242504589259624
000090 00 00 00 a0 0b e7 80 3f 00 00 00 80 af 38 7c 3f
       0.008253184147179127 0.00688999705016613
0000a0 00 00 00 e0 f0 34 e4 3e 00 00 00 00 18 f9 80 3f
       9.635353308112826e-06 0.008287608623504639
0000b0 00 00 00 00 56 96 80 3f 00 00 00 00 84 6e 7a 3f
       0.00809924304485321 0.0064530521631240845
0000c0 00 00 00 00 98 b6 75 3f 00 00 00 60 16 cc 7d 3f
       0.005301088094711304 0.007274711038917303
0000d0 00 00 00 a0 7a 80 77 3f 00 00 00 80 f8 f0 7b 3f
       0.005737761501222849 0.006821604445576668
0000e0 00 00 00 c0 cc 5b 78 3f 00 00 00 a0 b5 4f 7c 3f
       0.005946922115981579 0.006911954376846552
0000f0 00 00 00 20 42 27 7d 3f 00 00 00 e0 24 87 80 3f
       0.0071175177581608295 0.008070266805589199

backbone.4.block.2.bias f4 [32]
000000 a4 71 de be 2e ab 0f 3f 09 45 ec 3e ba 20 18 3f
       -0.43446076 0.56120574 0.4614642 0.59424937
000010 56 d6 ad 3e 8a 3c 31 bb bc 89 99 3d c1 c2 9d 3f
       0.33952588 -0.002704414 0.07496974 1.2325059
000020 82 90 d9 be 22 6f 7f 3e d9 e7 71 3f fc 69 f4 3e
       -0.42493063 0.24944738 0.94494396 0.4773711
000030 1a d5 44 3f 0f 01 4a 3f 79 fe 6b 3e a1 a4 32 bf
       0.7688767 0.78907865 0.23046292 -0.69782454
000040 04 36 c8 3e 28 53 52 3e 9e 2c 89 bf 4c 0c e5 be
       0.3910371 0.20539534 -1.0716741 -0.44735944
000050 45 f0 28 ba c3 01 95 bd 4c 3d 71 3f ce d7 30 3f
       -0.00064444944 -0.07275727 0.94234157 0.6907929
000060 3e 23 83 bc 85 a3 58 3f 4d cc ba be 68 e6 c4 3e
       -0.016008016 0.8462451 -0.36483994 0.38457036
000070 87 06 11 be d7 7a ac 3f b4 18 8a 3f 90 56 7d 3f
       -0.14162646 1.3474988 1.0788789 0.9896021

cpu f8 [32]
000000 00 00 00 40 5e 89 84 3f 00 00 00 40 d9 fb 7e 3f
       0.010027633979916573 0.00756440032273531
000010 00 00 00 80 4f 9c 7d 3f 00 00 00 00 f9 05 7f 3f
       0.007229147478938103 0.007574055343866348
000020 00 00 00 e0 71 9a 81 3f 00 00 00 a0 c5 28 7d 3f
       0.0085953613743186 0.0071189613081514835
000030 00 00 00 00 cf 8e 81 3f 00 00 00 60 db 9d 8b 3f
       0.008573167026042938 0.013484681956470013
000040 00 00 00 20 9a 79 79 3f 00 00 00 a0 e7 1e 88 3f
       0.006219484377652407 0.011777696199715137
000050 00 00 00 00 5e 9b 77 3f 00 00 00 00 f9 1f 81 3f
       0.005763404071331024 0.008361764252185822
000060 00 00 00 00 9f f1 83 3f 00 00 00 80 dd 2f 84 3f
       0.009738199412822723 0.009856920689344406
000070 00 00 00 60 57 00 82 3f 00 00 00 60 d7 77 82 3f
       0.008789713494479656 0.00901764165610075
000080 00 00 00 e0 bb 67 7a 3f 00 00 00 c0 8f e0 78 3f
       0.006446584593504667 0.006073533557355404
000090 00 00 00 00 f9 0b 7e 3f 00 00 00 00 f7 2c 85 3f
       0.007335636764764786 0.01033966988325119
0000a0 00 00 00 a0 37 e1 7b 3f 00 00 00 80 0c b0 7c 3f
       0.006806580815464258 0.007003830745816231
0000b0 00 00 00 20 41 02 80 3f 00 00 00 20 43 64 80 3f
       0.007816799916327 0.008003734983503819
0000c0 00 00 00 c0 a9 51 79 3f 00 00 00 20 1b e6 84 3f
       0.00618139561265707 0.010204517282545567
0000d0 00 00 00 40 44 42 7d 3f 00 00 00 e0 02 0a 79 3f
       0.0071432748809456825 0.006113063078373671
0000e0 00 00 00 e0 40 18 86 3f 00 00 00 a0 a6 80 87 3f
       0.010788447223603725 0.011475850827991962
0000f0 00 00 00 80 0d 74 82 3f 00 00 00 c0 2d e5 81 3f
       0.009010415524244308 0.008737904950976372

backbone.4.block.4.bias f4 [32]
000000 68 b6 05 3e a9 e4 92 3e b2 e4 b8 3e 07 13 bd bc
       0.13057864 0.2869008 0.3611198 -0.023080362
000010 bb bf 2d 3e cf e7 f3 3e a9 c8 64 3c 69 8a 82 3b
       0.1696767 0.47637793 0.013963857 0.003983785
000020 8d f8 74 3e 29 51 da 3e 19 15 c5 3e 28 9e 19 bc
       0.2392294 0.42640045 0.3849266 -0.009376086
000030 85 29 09 bf 41 0e 09 be 37 2c 08 bf 8f b7 4e bf
       -0.5357898 -0.13384344 -0.53192466 -0.8074884
000040 53 f2 d9 be 92 14 8f 3d ad bb 44 3e f8 49 42 3d
       -0.4256769 0.06986345 0.19212218 0.047433823
000050 4d b6 1b be 15 48 f0 3e 80 d4 dc 3e 78 19 0f be
       -0.15206261 0.46929994 0.43130875 -0.1397456
000060 02 77 cc 3e 9a 45 47 3e 3a a8 a1 3e 22 47 b6 bd
       0.39934546 0.19460145 0.3157366 -0.08900286
000070 9a 3c 25 bf 27 6f 28 3e 63 49 d1 3e 98 2e a2 3d
       -0.64545596 0.16448651 0.40876302 0.07919043

cpu f8 [128]
000000 00 00 00 e0 c8 ea 7c 3f 00 00 00 40 3a 29 80 3f
       0.007059845607727766 0.007891135290265083
000010 00 00 00 00 00 00 80 3e 00 00 00 c0 99 5e 82 3f
       1.1920928955078125e-07 0.008969498798251152
000020 00 00 00 00 d1 64 81 3f 00 00 00 00 00 00 80 3e
       0.008493073284626007 1.1920928955078125e-07
000030 00 00 00 e0 09 6d 7d 3f 00 00 00 60 9d 7d 7c 3f
       0.0071840654127299786 0.006955733057111502
000040 00 00 00 e0 94 d2 7a 3f 00 00 00 40 e2 02 79 3f
       0.006548482459038496 0.0061062658205628395
000050 00 00 00 00 00 00 80 3e 00 00 00 a0 37 e3 7e 3f
       1.1920928955078125e-07 0.007540910039097071
000060 00 00 00 80 b4 ff 76 3f 00 00 00 e0 52 2a 7c 3f
       0.005614953115582466 0.0068763005547225475
000070 00 00 00 a0 c6 48 7c 3f 00 00 00 60 3a ed 7d 3f
       0.006905341986566782 0.007306316401809454
000080 00 00 00 00 00 00 80 3e 00 00 00 00 00 00 80 3e
       1.1920928955078125e-07 1.1920928955078125e-07
000090 00 00 00 00 00 00 80 3e 00 00 00 20 c8 23 76 3f
       1.1920928955078125e-07 0.0054052178747951984
0000a0 00 00 00 60 26 07 78 3f 00 00 00 00 00 00 80 3e
       0.005866193678230047 1.1920928955078125e-07
0000b0 00 00 00 a0 95 dd 79 3f 00 00 00 00 00 00 80 3e
       0.006314835045486689 1.1920928955078125e-07
0000c0 00 00 00 20 9b 35 82 3f 00 00 00 e0 11 05 7e 3f
       0.00889130774885416 0.007329053711146116
0000d0 00 00 00 00 00 00 80 3e 00 00 00 00 00 00 80 3e
       1.1920928955078125e-07 1.1920928955078125e-07
0000e0 00 00 00 00 00 00 80 3e 00 00 00 00 a7 72 7f 3f
       1.1920928955078125e-07 0.007677700370550156
0000f0 00 00 00 a0 3d d2 77 3f 00 00 00 20 7c 4e 77 3f
       0.005815735552459955 0.005690083373337984
000100 00 00 00 20 68 52 7e 3f 00 00 00 00 1c c5 79 3f
       0.00740280793979764 0.006291493773460388
000110 00 00 00 a0 8b 58 7f 3f 00 00 00 20 5a 71 82 3f
       0.007652802858501673 0.00900526437908411
000120 00 00 00 80 3b 0f 7e 3f 00 00 00 00 00 00 80 3e
       0.007338745519518852 1.1920928955078125e-07
000130 00 00 00 80 8d 39 7f 3f 00 00 00 00 00 00 80 3e
       0.007623245939612389 1.1920928955078125e-07
000140 00 00 00 00 00 00 80 3e 00 00 00 00 00 00 80 3e
       1.1920928955078125e-07 1.1920928955078125e-07
000150 00 00 00 a0 5f 9a 80 3f 00 00 00 80 b7 6a 81 3f
       0.008106944151222706 0.00850432738661766
000160 00 00 00 00 cd ee 80 3f 00 00 00 00 00 00 80 3e
       0.008267976343631744 1.1920928955078125e-07
000170 00 00 00 80 ab b5 7b 3f 00 00 00 00 00 00 80 3e
       0.0067650508135557175 1.1920928955078125e-07
000180 00 00 00 00 c3 ee 75 3f 00 00 00 60 88 e2 7d 3f
       0.005354654043912888 0.007296116556972265
000190 00 00 00 c0 85 7f 79 3f 00 00 00 00 00 00 80 3e
       0.006225130520761013 1.1920928955078125e-07
0001a0 00 00 00 00 00 00 80 3e 00 00 00 80 60 2d 80 3f
       1.1920928955078125e-07 0.007899049669504166
0001b0 00 00 00 00 f4 ac 7f 3f 00 00 00 00 00 00 80 3e
       0.0077333003282547 1.1920928955078125e-07
0001c0 00 00 00 c0 85 8e 77 3f 00 00 00 c0 3c 45 7e 3f
       0.005751154385507107 0.007390248589217663
0001d0 00 00 00 a0 9a 16 80 3f 00 00 00 a0 be 0d 7c 3f
       0.007855613715946674 0.0068490453995764256
0001e0 00 00 00 20 30 f8 74 3f 00 00 00 00 00 00 80 3e
       0.0051195030100643635 1.1920928955078125e-07
0001f0 00 00 00 c0 96 dd 79 3f 00 00 00 80 2c 16 82 3f
       0.006314839236438274 0.008831355720758438
000200 00 00 00 00 00 00 80 3e 00 00 00 c0 e7 9c 78 3f
       1.1920928955078125e-07 0.0060090115293860435
000210 00 00 00 00 00 00 80 3e 00 00 00 00 00 00 80 3e
       1.1920928955078125e-07 1.1920928955078125e-07
000220 00 00 00 00 00 00 80 3e 00 00 00 a0 03 20 7f 3f
       1.1920928955078125e-07 0.007598890457302332
000230 00 00 00 a0 51 7c 7e 3f 00 00 00 c0 43 02 7c 3f
       0.007442778442054987 0.006838097237050533
000240 00 00 00 00 00 00 80 3e 00 00 00 00 00 00 80 3e
       1.1920928955078125e-07 1.1920928955078125e-07
000250 00 00 00 00 00 00 80 3e 00 00 00 00 00 00 80 3e
       1.1920928955078125e-07 1.1920928955078125e-07
000260 00 00 00 20 e9 2e 78 3f 00 00 00 00 00 00 80 3e
       0.0059041124768555164 1.1920928955078125e-07
000270 00 00 00 40 aa 32 7d 3f 00 00 00 80 6a 9b 7b 3f
       0.007128396071493626 0.006740013137459755
000280 00 00 00 e0 e3 05 77 3f 00 00 00 00 00 00 80 3e
       0.005620851647108793 1.1920928955078125e-07
000290 00 00 00 00 00 00 80 3e 00 00 00 00 5c 2f 7a 3f
       1.1920928955078125e-07 0.006392821669578552
0002a0 00 00 00 a0 23 9c 7f 3f 00 00 00 80 47 7b 82 3f
       0.007717265281826258 0.009024199098348618
0002b0 00 00 00 00 00 00 80 3e 00 00 00 00 00 00 80 3e
       1.1920928955078125e-07 1.1920928955078125e-07
0002c0 00 00 00 a0 d7 c2 7b 3f 00 00 00 40 59 86 7a 3f
       0.006777612958103418 0.006475781090557575
0002d0 00 00 00 20 f6 a9 7b 3f 00 00 00 60 fc a7 7b 3f
       0.006753884721547365 0.006752000655978918
0002e0 00 00 00 00 00 00 80 3e 00 00 00 c0 a9 be 7c 3f
       1.1920928955078125e-07 0.007017767988145351
0002f0 00 00 00 00 00 00 80 3e 00 00 00 00 00 00 80 3e
       1.1920928955078125e-07 1.1920928955078125e-07
000300 00 00 00 00 00 00 80 3e 00 00 00 00 00 00 80 3e
       1.1920928955078125e-07 1.1920928955078125e-07
000310 00 00 00 e0 e6 46 7b 3f 00 00 00 00 00 00 80 3e
       0.006659414153546095 1.1920928955078125e-07
000320 00 00 00 20 f0 9d 83 3f 00 00 00 60 90 92 7c 3f
       0.009578586556017399 0.006975711788982153
000330 00 00 00 00 02 d4 7d 3f 00 00 00 00 00 00 80 3e
       0.007282264530658722 1.1920928955078125e-07
000340 00 00 00 00 82 c5 82 3f 00 00 00 e0 3f 8a 77 3f
       0.009165778756141663 0.005747079383581877
000350 00 00 00 00 e6 fd 79 3f 00 00 00 80 d5 f9 81 3f
       0.0063456520438194275 0.008777301758527756
000360 00 00 00 00 00 00 80 3e 00 00 00 80 24 a3 76 3f
       1.1920928955078125e-07 0.005526678636670113
000370 00 00 00 80 41 e2 81 3f 00 00 00 00 00 00 80 3e
       0.008732330054044724 1.1920928955078125e-07
000380 00 00 00 a0 e1 aa 7c 3f 00 00 00 80 a3 c5 78 3f
       0.006998902652412653 0.00604785792529583
000390 00 00 00 20 73 82 7d 3f 00 00 00 00 00 00 80 3e
       0.007204484660178423 1.1920928955078125e-07
0003a0 00 00 00 20 51 48 7f 3f 00 00 00 00 00 00 80 3e
       0.007637326139956713 1.1920928955078125e-07
0003b0 00 00 00 80 6f e7 81 3f 00 00 00 00 00 00 80 3e
       0.008742209523916245 1.1920928955078125e-07
0003c0 00 00 00 00 00 00 80 3e 00 00 00 60 dc ce 79 3f
       1.1920928955078125e-07 0.006300793495029211
0003d0 00 00 00 e0 a8 80 7c 3f 00 00 00 00 00 00 80 3e
       0.006958636920899153 1.1920928955078125e-07
0003e0 00 00 00 00 00 00 80 3e 00 00 00 40 3d c8 80 3f
       1.1920928955078125e-07 0.008194426074624062
0003f0 00 00 00 00 00 00 80 3e 00 00 00 00 00 00 80 3e
       1.1920928955078125e-07 1.1920928955078125e-07

backbone.4.block.6.bias f4 [128]
000000 1a 31 60 bc c7 b9 27 3c 47 61 06 a0 df cf 7e 3c
       -0.013683582 0.010237164 -1.1382428e-19 0.01555249
000010 cc 23 00 be 6d 36 00 00 c9 c4 c2 3d 07 cf 3c 3d
       -0.12513655 1.9524e-41 0.0951019 0.046095874
000020 57 46 90 bd 3f 1b fa bd 70 c0 12 97 5b db 98 3d
       -0.07044666 -0.12212228 -4.7418035e-25 0.07463714
000030 08 7d 75 3d c8 69 23 bc 61 f0 04 3e 3a 91 ea bd
       0.059933692 -0.009973951 0.12982322 -0.11453481
000040 b7 24 80 08 04 fd b3 b1 3c 15 49 28 73 cb 80 bd
       7.712351e-34 -5.23835e-09 1.1162346e-14 -0.06288805
000050 ae ac 26 3d 9d 9c 0d 2e 43 dd c3 bc 03 22 2f 31
       0.040692024 3.219879e-11 -0.023909217 2.5485185e-09
000060 27 f7 16 3e aa 96 b8 3d eb 5b bf 0e 6d 44 7c 2e
       0.14742719 0.09013112 4.717365e-30 5.735894e-11
000070 31 e6 d9 14 4b c6 4d 3d 7b ee 60 bd e5 fd 19 3c
       2.2002195e-26 0.050237935 -0.054914933 0.009398912
000080 89 c3 6f 3e ea 13 0a 3e 2f a4 17 3e 7d a9 31 bd
       0.23414434 0.13484159 0.14808725 -0.043374527
000090 b1 47 b0 3d fe 3e 00 00 34 06 a6 3c 1b 04 18 b0
       0.08607424 2.2597e-41 0.02026663 -5.530311e-10
0000a0 83 a8 a1 ad 9a 8a 98 32 93 d8 46 3d 05 78 87 bd
       -1.8378415e-11 1.7758158e-08 0.048546385 -0.06614689
0000b0 1b b9 b8 bd 83 27 0f a7 71 96 ad 3d ee 16 c3 34
       -0.09019681 -1.9866656e-15 0.0847596 3.6338264e-07
0000c0 6c 28 06 be 5a f8 69 3d 7f 71 df bc 75 e5 f9 ae
       -0.13101357 0.057121612 -0.027275799 -1.1363969e-10
0000d0 1f 02 8e b3 77 c0 52 3d a2 d7 4a bd cd 87 5c 20
       -6.612776e-08 0.05145308 -0.04952205 1.8679658e-19
0000e0 4b c8 2c 3c 9d 71 4f 3d f7 a4 53 3e e2 6b ba bc
       0.0105458 0.05064546 0.20668398 -0.02275652
0000f0 5f b8 92 3c 91 59 cd 1e 32 96 47 3d de 24 26 bc
       0.01791018 2.1742263e-20 0.04872722 -0.010140626
000100 8a 64 52 9c ea 10 c1 bd c0 18 33 25 1c f7 9d a1
       -6.9613115e-22 -0.09427054 1.5534161e-16 -1.0704143e-18
000110 55 1c d4 a6 96 15 c7 bd 43 fe 26 bd 3f 6a bd 3d
       -1.4718134e-15 -0.09720914 -0.040769827 0.092487805
000120 dd 1b 16 2e b2 1b 22 1d 28 b7 a5 31 33 58 fe a9
       3.41308e-11 2.145484e-21 4.8229545e-09 -1.1295166e-13
000130 74 d5 31 bd 9d b8 7a a6 7d 84 d1 3c 40 e0 1d bd
       -0.043416455 -8.698637e-16 0.02557587 -0.03854394
000140 a0 0f 09 be cd ee f5 33 56 a2 94 2a 5f 61 cd bc
       -0.13384867 1.1452139e-07 2.6402724e-13 -0.025070844
000150 83 b1 c5 3d 1d bf a3 bd 8e 55 d8 b2 bc 11 69 32
       0.09652998 -0.07995436 -2.5184615e-08 1.3566417e-08
000160 5e 76 f1 3d b7 78 17 be a6 3f 3b be 0c 38 29 bd
       0.11790155 -0.14792143 -0.18285999 -0.041313216
000170 84 5b 94 ab 54 8c e0 3d a8 7c c8 24 63 d1 4b 31
       -1.0541433e-12 0.109642655 8.694735e-17 2.965941e-09
000180 01 9f 69 b0 76 01 00 00 6b 68 de bd 56 1a 00 80
       -8.4990864e-10 5.24e-43 -0.1085976 -9.448e-42
000190 68 06 8c bc d8 0e f1 3d 1a f6 ca 3d bd ba d9 21
       -0.017092898 0.11770409 0.099102214 1.4753921e-18
0001a0 a4 85 ab 3c 15 2a 34 3d f7 67 e5 bd 01 f5 79 3d
       0.020937748 0.043985445 -0.1120147 0.06102467
0001b0 7b 71 de a6 97 22 16 bd 00 5b 05 3e 40 e3 7f 09
       -1.5435103e-15 -0.03665408 0.13022995 3.0801361e-33
0001c0 95 25 25 be b5 47 a9 bc a4 3d 28 bb 2f 14 00 80
       -0.16127618 -0.020664075 -0.0025671506 -7.24e-42
0001d0 d4 c7 5c bd d8 5e 6d 12 83 e2 5c 3d 17 3f 00 80
       -0.05390151 7.490092e-28 0.053926956 -2.2632e-41
0001e0 e6 8c 81 25 3f cc 9e 3d 78 c3 7f 3d 36 d2 c8 03
       2.247341e-16 0.077538006 0.062442273 1.1803206e-36
0001f0 c9 7b 6b 28 f8 a5 9e bd 8b 87 39 27 07 4f 19 a8
       1.3071962e-14 -0.077465 2.5747385e-15 -8.5103425e-15

backbone.5.weight f4 [128]
000000 35 eb 00 3f 0e 6d 34 bf 63 c4 43 24 46 ef 35 3f
       0.503589 -0.70478904 4.245023e-17 0.7106823
000010 77 0b 33 bf 5e 3c 00 80 34 d2 9e 3e a0 08 5a 3f
       -0.6993937 -2.1656e-41 0.31019747 0.8516941
000020 a9 dc ee be e8 e7 0b bf 92 95 53 1a 55 d4 75 3f
       -0.46652725 -0.54650736 4.37546e-23 0.9602712
000030 37 27 48 3e 7a 93 31 bf ca 64 dc 3e 1b f6 01 bf
       0.1954621 -0.69365656 0.43045646 -0.5076615
000040 34 17 86 8c 5e cb f3 b5 2b f0 ee 2b 0c 2e f4 be
       -2.0659934e-31 -1.8164098e-06 1.6977577e-12 -0.4769138
000050 a2 f7 74 3e cd f4 e9 ae f9 ec b8 be 51 e7 1c b5
       0.2392259 -1.06390986e-10 -0.36118296 -5.845114e-07
000060 50 48 54 3f fc 56 2c 3f b1 38 18 92 fa 0d 31 31
       0.8292284 0.6732023 -4.803262e-28 2.5764835e-09
000070 c6 c3 32 98 29 60 13 3f 3e a6 91 be 48 7d 79 3f
       -2.3104801e-24 0.57568604 -0.28447145 0.9745679
000080 8c 24 b6 3e f7 21 0d 3f 69 e6 00 3f ee c9 28 bf
       0.35574758 0.5512995 0.5035158 -0.6593312
000090 0f 07 05 3f 8a 3b 00 80 27 c1 f2 be c0 6f 0a 32
       0.51963896 -2.1359e-41 -0.4741299 8.058066e-09
0000a0 73 32 12 31 28 26 f8 b5 2d 98 a9 3e 40 55 2f bf
       2.1274473e-09 -1.8488545e-06 0.33123913 -0.68489456
0000b0 04 24 2a bf 65 0c e0 29 04 60 06 3e 73 91 81 b7
       -0.66461205 9.9497484e-14 0.13122565 -1.5445728e-05
0000c0 82 d7 41 be 0a d2 21 3f 15 af 8e be 58 73 ae 31
       -0.18929866 0.6321112 -0.27867952 5.0771796e-09
0000d0 11 fc 31 b5 b6 a7 24 3f 78 06 09 bf 43 7b cc a4
       -6.6304443e-07 0.64318407 -0.53525496 -8.867971e-17
0000e0 6a 59 a9 3e 5f eb 85 3f fd 75 dc 3e 01 18 22 bf
       0.3307603 1.0462455 0.43058768 -0.6331788
0000f0 54 da ce be 81 8a 05 a2 75 3a 95 3e 78 4f 80 3f
       -0.40400946 -1.8098184e-18 0.29146162 1.0024252
000100 da 24 cb 1f e2 71 a0 be 0a 13 ed a7 db a0 1e 25
       8.603481e-20 -0.31336886 -6.5801356e-15 1.3758815e-16
000110 53 2d fd 28 4d 60 03 bf 9d c7 12 3f d8 5f 27 3f
       2.8108299e-14 -0.5131882 0.57335836 0.6538062
000120 00 d6 92 31 92 d9 2f a1 33 8c b0 b4 93 21 2b 2d
       4.2734882e-09 -5.958026e-19 -3.2884563e-07 9.72768e-12
000130 94 62 59 be 77 b4 b9 29 a2 c7 f3 3e 47 2a 46 bf
       -0.21229011 8.246956e-14 0.47613245 -0.7740826
000140 0a d6 a3 be 46 e8 20 b7 1d 0d 5b ae 86 b5 8c bf
       -0.31999236 -9.5908235e-06 -4.9806482e-11 -1.0992897
000150 6e 9b aa 3e 51 f9 24 bf 57 f1 01 b4 45 b4 27 b5
       0.33321708 -0.64442927 -1.210186e-07 -6.2474675e-07
000160 cb 0f ac 3e 9d 15 1c bf fa f1 15 bf ce 9a 4b bf
       0.336058 -0.6097048 -0.5857235 -0.7953309
000170 95 ee 16 af 0c 9a 1b 3f 98 97 dd a7 bf 2b e5 34
       -1.3727182e-10 0.6078193 -6.150418e-15 4.2686403e-07
000180 fa a1 f5 31 3c 06 00 00 06 4b fc be 38 56 00 80
       7.148853e-09 2.236e-42 -0.49275988 -3.093e-41
000190 af de fd be 3e c1 1c 3f 81 1d 09 3f b5 9b 49 25
       -0.49583957 0.61232364 0.53560644 1.7486727e-16
0001a0 a0 3e 13 bf 18 0b 3a 3f 2e 2a 8b be a7 69 d7 3e
       -0.57517433 0.7267318 -0.27180618 0.42072794
0001b0 b2 4d 04 2b 84 81 06 bf 68 08 8d 3e bc f7 b6 0c
       4.7003644e-13 -0.52541375 0.27545476 2.819064e-31
0001c0 10 b1 e7 be 55 82 43 3f 75 33 0f bf da 2d 00 00
       -0.45252275 0.76370746 -0.5593789 1.6448e-41
0001d0 ed d7 14 bf fe 73 a9 95 94 a1 fb 3e 11 45 00 80
       -0.58141977 -6.844156e-26 0.49146712 -2.4776e-41
0001e0 c4 06 a5 a8 70 51 5d 3f 53 cf 16 3f b0 a7 67 86
       -1.8321614e-14 0.8645239 0.589101 -4.3569469e-35
0001f0 f4 4f 7e 2d fd 13 43 bf 57 cd 11 aa 44 7f 86 2b
       1.44559816e-11 -0.76202375 -1.2949829e-13 9.556596e-13

backbone.5.bias f4 [128]
000000 23 dd e8 3d 56 04 39 3c 8f 37 c3 b7 a6 25 4c 3d
       0.113703035 0.011292538 -2.3271683e-05 0.04984059
000010 32 6c 52 3e 7d 80 0b b8 b5 9e 2e 3f b8 ae 78 3d
       0.20549086 -3.3259847e-05 0.6821092 0.0607135
000020 fd 20 b7 3e 9c e7 ad 3e 3b cd 95 b8 11 b1 b1 3d
       0.35767356 0.33965766 -7.143101e-05 0.08676351
000030 0a 02 3f 3f 72 8e ff 3c 9b c0 0f 3f 66 f3 a0 3e
       0.74612486 0.031195853 0.5615327 0.31435698
000040 64 a8 25 b9 38 f6 61 b5 e3 0b 8d b9 d4 08 36 3e
       -0.00015798357 -8.4177327e-07 -0.00026902472 0.17776805
000050 b6 84 32 3f d3 11 ab b6 5c ed 51 3e ea 64 0c b9
       0.6973375 -5.098272e-06 0.20500702 -0.00013389034
000060 da a0 6a 3e c7 3f 2a 3e fd d8 ae b9 f7 4d 90 b6
       0.22912923 0.16625892 -0.00033349535 -4.3006107e-06
000070 d1 f6 f5 b5 b8 98 2c 3e 14 a3 48 3e 51 c5 46 3c
       -1.8325755e-06 0.16855133 0.1959346 0.012132005
000080 ec f9 4b 3f f7 f2 a3 3e a5 10 c2 3e 49 81 c2 3d
       0.79678226 0.32021305 0.37903324 0.094973154
000090 ad 47 a0 3e 79 23 0f b9 af 43 21 3d 76 a3 21 b7
       0.31304684 -0.00013650757 0.03937119 -9.6344065e-06
0000a0 8a 09 95 b8 13 95 66 b8 eb 17 94 3e 17 62 29 3e
       -7.1066504e-05 -5.497511e-05 0.28924498 0.16541325
0000b0 64 f8 56 3e 43 9d 02 b9 9b a3 94 3f 71 3c 1f b8
       0.20993191 -0.0001245635 1.1612428 -3.7964845e-05
0000c0 e2 9b 5c 3f f0 ea 13 3e c7 6c 3c 3e b9 79 52 b9
       0.8617536 0.1444509 0.1840087 -0.00020072506
0000d0 e4 8e 48 b9 25 8c e6 3d 43 b9 e5 3d dc 7d 40 b9
       -0.00019126717 0.11257199 0.112169765 -0.00018357433
0000e0 a3 6e d8 bc cc 39 53 3d bd a1 5a 3f 36 bc 92 3d
       -0.026419943 0.05156879 0.85403043 0.07164805
0000f0 ca cb 8b bd 10 66 7b b8 59 dc 0f 3f 4a c6 e7 bb
       -0.06825979 -5.9938116e-05 0.561956 -0.0070731984
000100 d4 42 65 b8 48 23 0c 3f 57 6a d4 b7 59 a1 c0 b8
       -5.4660093e-05 0.54741335 -2.5321888e-05 -9.185327e-05
000110 81 2a 0d b7 c6 67 9c 3e 0f 4c 64 bd 86 7b 3d 3e
       -8.414151e-06 0.30547923 -0.055736598 0.18504152
000120 45 d1 ca b8 d0 05 0a b9 d7 2e 54 b8 fe 97 bc b9
       -9.67109e-05 -0.00013162871 -5.058836e-05 -0.00035971397
000130 c6 75 ea 3e 1d 55 82 b9 66 5c 73 3e 70 7c 67 3d
       0.4579298 -0.00024858947 0.23765716 0.056515157
000140 4c ef 16 3f fd 12 20 b9 18 81 cf b8 55 63 be 3c
       0.5895889 -0.00015265863 -9.894575e-05 0.023240725
000150 a9 38 19 3f 24 83 25 3e b7 48 7b b9 d4 d5 2e b9
       0.5985208 0.16163307 -0.00023964314 -0.0001667359
000160 51 36 b5 3e e4 be bd 3e 42 13 db 3e b3 79 83 3d
       0.35393003 0.370597 0.4278813 0.06419697
000170 54 e9 f0 39 50 07 83 3e 7f 50 75 b9 5b 32 e6 39
       0.0004595021 0.25591516 -0.00023395008 0.00043906536
000180 19 64 2f b9 25 3e 60 b8 b4 bb 8f 3e 32 cf b8 b8
       -0.0001672659 -5.346364e-05 0.28072894 -8.812397e-05
000190 be 3a f0 3d 16 47 86 3e 8a 66 85 3e cc 80 a4 36
       0.11729954 0.2622611 0.26054794 4.902575e-06
0001a0 79 83 1a 3d 75 c1 fd 3d f7 f0 4e 3e 93 f4 53 3e
       0.03772304 0.123904146 0.20209108 0.20698766
0001b0 7d 6e 07 39 fb 9f de 3d c4 47 76 3f f3 4b aa 39
       0.00012915763 0.108703576 0.96203256 0.00032481513
0001c0 ef 27 0f 3f ba c2 9c bc 5a a6 8b 3c cd a8 d4 b8
       0.5592031 -0.019135822 0.017047096 -0.00010140389
0001d0 01 15 12 3e 27 38 1b b9 43 6a 92 3e 96 40 e6 b8
       0.14265825 -0.0001480287 0.28596696 -0.00010979285
0001e0 8a 3b d3 39 35 64 d6 3d 18 ba 1d 3e 8c c3 26 b9
       0.00040289416 0.10468332 0.1540302 -0.0001590384
0001f0 a1 b7 e9 b2 de f2 09 3e b6 7a 57 b7 c8 2f 6b b8
       -2.7208275e-08 0.13471553 -1.28435695e-05 -5.6072866e-05

backbone.5.running_mean f4 [128]
000000 00 00 00 00 00 00 00 00 00 00 00 00 00 00 00 00
       0.0 0.0 0.0 0.0
000010 00 00 00 00 00 00 00 00 00 00 00 00 00 00 00 00
       0.0 0.0 0.0 0.0
000020 00 00 00 00 00 00 00 00 00 00 00 00 00 00 00 00
       0.0 0.0 0.0 0.0
000030 00 00 00 00 00 00 00 00 00 00 00 00 00 00 00 00
       0.0 0.0 0.0 0.0
000040 00 00 00 00 00 00 00 00 00 00 00 00 00 00 00 00
       0.0 0.0 0.0 0.0
000050 00 00 00 00 00 00 00 00 00 00 00 00 00 00 00 00
       0.0 0.0 0.0 0.0
000060 00 00 00 00 00 00 00 00 00 00 00 00 00 00 00 00
       0.0 0.0 0.0 0.0
000070 00 00 00 00 00 00 00 00 00 00 00 00 00 00 00 00
       0.0 0.0 0.0 0.0
000080 00 00 00 00 00 00 00 00 00 00 00 00 00 00 00 00
       0.0 0.0 0.0 0.0
000090 00 00 00 00 00 00 00 00 00 00 00 00 00 00 00 00
       0.0 0.0 0.0 0.0
0000a0 00 00 00 00 00 00 00 00 00 00 00 00 00 00 00 00
       0.0 0.0 0.0 0.0
0000b0 00 00 00 00 00 00 00 00 00 00 00 00 00 00 00 00
       0.0 0.0 0.0 0.0
0000c0 00 00 00 00 00 00 00 00 00 00 00 00 00 00 00 00
       0.0 0.0 0.0 0.0
0000d0 00 00 00 00 00 00 00 00 00 00 00 00 00 00 00 00
       0.0 0.0 0.0 0.0
0000e0 00 00 00 00 00 00 00 00 00 00 00 00 00 00 00 00
       0.0 0.0 0.0 0.0
0000f0 00 00 00 00 00 00 00 00 00 00 00 00 00 00 00 00
       0.0 0.0 0.0 0.0
000100 00 00 00 00 00 00 00 00 00 00 00 00 00 00 00 00
       0.0 0.0 0.0 0.0
000110 00 00 00 00 00 00 00 00 00 00 00 00 00 00 00 00
       0.0 0.0 0.0 0.0
000120 00 00 00 00 00 00 00 00 00 00 00 00 00 00 00 00
       0.0 0.0 0.0 0.0
000130 00 00 00 00 00 00 00 00 00 00 00 00 00 00 00 00
       0.0 0.0 0.0 0.0
000140 00 00 00 00 00 00 00 00 00 00 00 00 00 00 00 00
       0.0 0.0 0.0 0.0
000150 00 00 00 00 00 00 00 00 00 00 00 00 00 00 00 00
       0.0 0.0 0.0 0.0
000160 00 00 00 00 00 00 00 00 00 00 00 00 00 00 00 00
       0.0 0.0 0.0 0.0
000170 00 00 00 00 00 00 00 00 00 00 00 00 00 00 00 00
       0.0 0.0 0.0 0.0
000180 00 00 00 00 00 00 00 00 00 00 00 00 00 00 00 00
       0.0 0.0 0.0 0.0
000190 00 00 00 00 00 00 00 00 00 00 00 00 00 00 00 00
       0.0 0.0 0.0 0.0
0001a0 00 00 00 00 00 00 00 00 00 00 00 00 00 00 00 00
       0.0 0.0 0.0 0.0
0001b0 00 00 00 00 00 00 00 00 00 00 00 00 00 00 00 00
       0.0 0.0 0.0 0.0
0001c0 00 00 00 00 00 00 00 00 00 00 00 00 00 00 00 00
       0.0 0.0 0.0 0.0
0001d0 00 00 00 00 00 00 00 00 00 00 00 00 00 00 00 00
       0.0 0.0 0.0 0.0
0001e0 00 00 00 00 00 00 00 00 00 00 00 00 00 00 00 00
       0.0 0.0 0.0 0.0
0001f0 00 00 00 00 00 00 00 00 00 00 00 00 00 00 00 00
       0.0 0.0 0.0 0.0

backbone.5.running_var f4 [128]
000000 00 00 80 3f 00 00 80 3f 00 00 80 3f 00 00 80 3f
       1.0 1.0 1.0 1.0
000010 00 00 80 3f 00 00 80 3f 00 00 80 3f 00 00 80 3f
       1.0 1.0 1.0 1.0
000020 00 00 80 3f 00 00 80 3f 00 00 80 3f 00 00 80 3f
       1.0 1.0 1.0 1.0
000030 00 00 80 3f 00 00 80 3f 00 00 80 3f 00 00 80 3f
       1.0 1.0 1.0 1.0
000040 00 00 80 3f 00 00 80 3f 00 00 80 3f 00 00 80 3f
       1.0 1.0 1.0 1.0
000050 00 00 80 3f 00 00 80 3f 00 00 80 3f 00 00 80 3f
       1.0 1.0 1.0 1.0
000060 00 00 80 3f 00 00 80 3f 00 00 80 3f 00 00 80 3f
       1.0 1.0 1.0 1.0
000070 00 00 80 3f 00 00 80 3f 00 00 80 3f 00 00 80 3f
       1.0 1.0 1.0 1.0
000080 00 00 80 3f 00 00 80 3f 00 00 80 3f 00 00 80 3f
       1.0 1.0 1.0 1.0
000090 00 00 80 3f 00 00 80 3f 00 00 80 3f 00 00 80 3f
       1.0 1.0 1.0 1.0
0000a0 00 00 80 3f 00 00 80 3f 00 00 80 3f 00 00 80 3f
       1.0 1.0 1.0 1.0
0000b0 00 00 80 3f 00 00 80 3f 00 00 80 3f 00 00 80 3f
       1.0 1.0 1.0 1.0
0000c0 00 00 80 3f 00 00 80 3f 00 00 80 3f 00 00 80 3f
       1.0 1.0 1.0 1.0
0000d0 00 00 80 3f 00 00 80 3f 00 00 80 3f 00 00 80 3f
       1.0 1.0 1.0 1.0
0000e0 00 00 80 3f 00 00 80 3f 00 00 80 3f 00 00 80 3f
       1.0 1.0 1.0 1.0
0000f0 00 00 80 3f 00 00 80 3f 00 00 80 3f 00 00 80 3f
       1.0 1.0 1.0 1.0
000100 00 00 80 3f 00 00 80 3f 00 00 80 3f 00 00 80 3f
       1.0 1.0 1.0 1.0
000110 00 00 80 3f 00 00 80 3f 00 00 80 3f 00 00 80 3f
       1.0 1.0 1.0 1.0
000120 00 00 80 3f 00 00 80 3f 00 00 80 3f 00 00 80 3f
       1.0 1.0 1.0 1.0
000130 00 00 80 3f 00 00 80 3f 00 00 80 3f 00 00 80 3f
       1.0 1.0 1.0 1.0
000140 00 00 80 3f 00 00 80 3f 00 00 80 3f 00 00 80 3f
       1.0 1.0 1.0 1.0
000150 00 00 80 3f 00 00 80 3f 00 00 80 3f 00 00 80 3f
       1.0 1.0 1.0 1.0
000160 00 00 80 3f 00 00 80 3f 00 00 80 3f 00 00 80 3f
       1.0 1.0 1.0 1.0
000170 00 00 80 3f 00 00 80 3f 00 00 80 3f 00 00 80 3f
       1.0 1.0 1.0 1.0
000180 00 00 80 3f 00 00 80 3f 00 00 80 3f 00 00 80 3f
       1.0 1.0 1.0 1.0
000190 00 00 80 3f 00 00 80 3f 00 00 80 3f 00 00 80 3f
       1.0 1.0 1.0 1.0
0001a0 00 00 80 3f 00 00 80 3f 00 00 80 3f 00 00 80 3f
       1.0 1.0 1.0 1.0
0001b0 00 00 80 3f 00 00 80 3f 00 00 80 3f 00 00 80 3f
       1.0 1.0 1.0 1.0
0001c0 00 00 80 3f 00 00 80 3f 00 00 80 3f 00 00 80 3f
       1.0 1.0 1.0 1.0
0001d0 00 00 80 3f 00 00 80 3f 00 00 80 3f 00 00 80 3f
       1.0 1.0 1.0 1.0
0001e0 00 00 80 3f 00 00 80 3f 00 00 80 3f 00 00 80 3f
       1.0 1.0 1.0 1.0
0001f0 00 00 80 3f 00 00 80 3f 00 00 80 3f 00 00 80 3f
       1.0 1.0 1.0 1.0

cpu f8 [64]
000000 00 00 00 a0 e9 4a 74 3f 00 00 00 40 38 43 79 3f
       0.004954254720360041 0.006167621351778507
000010 00 00 00 c0 a7 ed 48 3f 00 00 00 c0 33 00 74 3f
       0.000760752591304481 0.004883005283772945
000020 00 00 00 20 8c 2f 7f 3f 00 00 00 a0 31 f9 4b 3f
       0.007613704074174166 0.0008536808309145272
000030 00 00 00 20 2d 3e 2c 3f 00 00 00 20 f4 3f 6b 3f
       0.00021547604410443455 0.003326393896713853
000040 00 00 00 20 16 f7 21 3f 00 00 00 c0 65 c5 70 3f
       0.00013706345635000616 0.0040945028886199
000050 00 00 00 00 d7 43 4e 3f 00 00 00 a0 f6 82 63 3f
       0.0009236144833266735 0.0023817841429263353
000060 00 00 00 a0 12 2a 42 3f 00 00 00 c0 e5 3d 78 3f
       0.0005543318693526089 0.005918405018746853
000070 00 00 00 00 87 ee 2c 3f 00 00 00 a0 64 c6 4e 3f
       0.00022073171567171812 0.00093917764024809
000080 00 00 00 a0 7a 22 70 3f 00 00 00 c0 32 dd 7a 3f
       0.003939131740480661 0.006558607332408428
000090 00 00 00 00 07 15 17 3f 00 00 00 20 7e 55 82 3f
       8.80513689480722e-05 0.00895212683826685
0000a0 00 00 00 20 8d 0d 79 3f 00 00 00 c0 e2 14 50 3f
       0.006116439122706652 0.0009815420489758253
0000b0 00 00 00 e0 20 44 21 3f 00 00 00 c0 1f fe 71 3f
       0.00013173009210731834 0.004392742179334164
0000c0 00 00 00 20 71 fc 7e 3f 00 00 00 e0 28 96 4c 3f
       0.0075649661011993885 0.0008723926148377359
0000d0 00 00 00 20 a3 01 6f 3f 00 00 00 80 42 54 26 3f
       0.0037849603686481714 0.0001703578163869679
0000e0 00 00 00 80 74 c4 56 3f 00 00 00 c0 c9 17 6f 3f
       0.001389611978083849 0.0037955227307975292
0000f0 00 00 00 20 88 6f 54 3f 00 00 00 c0 1f f4 35 3f
       0.001247294363565743 0.0003349854960106313
000100 00 00 00 a0 ef ff 30 3f 00 00 00 e0 92 10 1d 3f
       0.00025939560146071017 0.00011087318853242323
000110 00 00 00 20 a2 60 29 3f 00 00 00 e0 10 a6 82 3f
       0.00019361476006451994 0.009105808101594448
000120 00 00 00 20 40 1a 83 3f 00 00 00 20 e8 d5 76 3f
       0.009327412582933903 0.005575091112405062
000130 00 00 00 80 96 81 59 3f 00 00 00 80 c0 99 73 3f
       0.0015567750670015812 0.00478530116379261
000140 00 00 00 20 ed 37 7e 3f 00 00 00 20 b1 bf 71 3f
       0.0073775541968643665 0.004333202261477709
000150 00 00 00 c0 e1 5c 72 3f 00 00 00 c0 bd e6 78 3f
       0.004483110271394253 0.006079426966607571
000160 00 00 00 e0 40 ba 16 3f 00 00 00 e0 db 18 35 3f
       8.669873204780743e-05 0.00032191627542488277
000170 00 00 00 80 e8 77 26 3f 00 00 00 00 4c 76 71 3f
       0.0001714202226139605 0.004263207316398621
000180 00 00 00 e0 f1 74 57 3f 00 00 00 e0 ce a3 7a 3f
       0.0014316904125735164 0.006503875833004713
000190 00 00 00 20 d6 ba 74 3f 00 00 00 20 73 fb 18 3f
       0.005060993600636721 9.529962699161842e-05
0001a0 00 00 00 40 5b 87 5a 3f 00 00 00 a0 8c e1 6c 3f
       0.0016191855538636446 0.0035255190450698137
0001b0 00 00 00 c0 c9 61 79 3f 00 00 00 a0 3a ec 5b 3f
       0.006196773611009121 0.0017042706022039056
0001c0 00 00 00 e0 ba 7a 77 3f 00 00 00 c0 e2 4a 73 3f
       0.005732278805226088 0.004710088483989239
0001d0 00 00 00 e0 72 6e 71 3f 00 00 00 c0 8c 61 6d 3f
       0.004255722742527723 0.0035865544341504574
0001e0 00 00 00 20 96 a7 22 3f 00 00 00 20 57 a0 64 3f
       0.00014232356625143439 0.0025178624782711267
0001f0 00 00 00 00 bc 43 38 3f 00 00 00 00 a9 00 65 3f
       0.0003702482208609581 0.00256379134953022

backbone.8.block.0.bias f4 [64]
000000 70 6c 58 be a2 21 6d 3d 06 9a a9 3c 5a ca fb bc
       -0.21135116 0.057893403 0.020703327 -0.030736137
000010 da bf 77 be 00 fe 9c 3c df 90 b1 3a d9 00 37 bd
       -0.2419428 0.019164085 0.0013547203 -0.044678543
000020 d9 d2 1e 3a 19 65 05 3e 5a f8 21 bc 3f 3b 3b 3f
       0.00060586404 0.13026847 -0.009885872 0.7313728
000030 e7 9e 28 bb 72 72 20 3f 42 06 37 3b 88 79 34 3b
       -0.0025729479 0.6267463 0.0027927314 0.0027538259
000040 50 20 8a 3e 61 69 03 3d b5 4b 1d bb cf 64 85 bd
       0.26977777 0.03208292 -0.0024001424 -0.06513368
000050 a5 51 4f be de de 94 3d 10 bd 64 3b 2e b4 14 3f
       -0.20245989 0.07269071 0.003490273 0.5808743
000060 79 05 d3 3d cc c0 e6 b9 d2 9d 32 3f 1c 05 26 bb
       0.10303778 -0.00044012663 0.69772065 -0.0025332635
000070 42 a8 bc bb 44 b3 ef 3e 26 56 22 bd 38 05 95 bb
       -0.0057573626 0.46816456 -0.03963294 -0.0045477413
000080 0e 54 8d bb 55 cb b1 ba 71 4d f4 ba 94 02 86 bb
       -0.0043129986 -0.0013564626 -0.0018638802 -0.004089663
000090 7a 64 2b 3d dd 96 05 be a9 15 e9 bb 91 79 89 bd
       0.04184387 -0.13045831 -0.007113178 -0.0671264
0000a0 01 c0 61 bd a2 59 23 be e8 7a 28 bc 26 62 02 be
       -0.05511475 -0.15952161 -0.010283209 -0.12732753
0000b0 d1 24 9f bb 1a fd c3 ba 35 21 2a bb ee f0 d4 3d
       -0.004856684 -0.001495275 -0.0025959734 0.10397516
0000c0 14 13 63 bc 2a f4 8e bc d3 0e 55 3d 17 1e 40 ba
       -0.013859529 -0.01745041 0.05201609 -0.00073287025
0000d0 d9 40 db 3c e5 b1 18 3f 16 9e 18 3e 0a 6c a9 bc
       0.02676432 0.59646446 0.14904055 -0.0206814
0000e0 56 cf d8 3d 97 a4 04 3d 8b d9 29 bd e7 c1 6b 3f
       0.10586421 0.032383528 -0.04146723 0.92092746
0000f0 cc a4 e2 bb ce 70 59 3d 20 90 03 bb 64 3d a7 bc
       -0.006916618 0.053086095 -0.002007492 -0.020415016

cpu f8 [64]
000000 00 00 00 e0 7c 31 79 3f 00 00 00 00 82 3d f5 3e
       0.006150710862129927 2.0256295101717114e-05
000010 00 00 00 80 b5 01 69 3f 00 00 00 60 c2 ea 09 3f
       0.0030525727197527885 4.9432808737037703e-05
000020 00 00 00 80 48 18 40 3f 00 00 00 e0 7c ae fa 3e
       0.0004911760333925486 2.5445549908909015e-05
000030 00 00 00 c0 f9 b4 6f 3f 00 00 00 40 4f da ee 3e
       0.003870475571602583 1.4711748008267023e-05
000040 00 00 00 a0 6a 10 50 3f 00 00 00 e0 f8 97 69 3f
       0.0009804764995351434 0.0031242237892001867
000050 00 00 00 40 6e 7f 01 3f 00 00 00 00 2d 2f 6a 3f
       3.337435919092968e-05 0.0031963232904672623
000060 00 00 00 a0 26 bb 24 3f 00 00 00 60 80 45 24 3f
       0.0001581654214533046 0.0001546591956866905
000070 00 00 00 00 81 ec 01 3f 00 00 00 00 2a fb 6c 3f
       3.418701817281544e-05 0.003537733107805252
000080 00 00 00 80 2e 92 77 3f 00 00 00 80 c2 89 6f 3f
       0.005754644051194191 0.0038498686626553535
000090 00 00 00 80 0e 8e 73 3f 00 00 00 00 dc 8b 23 3f
       0.004774147644639015 0.00014912663027644157
0000a0 00 00 00 80 4d 90 00 3f 00 00 00 40 fb 13 e1 3e
       3.159271727781743e-05 8.143450031639077e-06
0000b0 00 00 00 a0 e0 35 2e 3f 00 00 00 80 fa 1f 7d 3f
       0.00023048750881571323 0.0071105752140283585
0000c0 00 00 00 a0 3f 6c 1e 3f 00 00 00 00 ab 82 69 3f
       0.00011605394684011117 0.0031140651553869247
0000d0 00 00 00 60 e7 39 6c 3f 00 00 00 e0 2a 29 6c 3f
       0.0034455794375389814 0.0034375989343971014
0000e0 00 00 00 60 53 82 bb 3e 00 00 00 60 14 30 71 3f
       1.6396692217313102e-06 0.004196242894977331
0000f0 00 00 00 80 7f 4c 72 3f 00 00 00 20 c9 1f 1c 3f
       0.004467485472559929 0.0001072851664503105
000100 00 00 00 40 f9 62 70 3f 00 00 00 00 ac 97 22 3f
       0.004000638611614704 0.00014184927567839622
000110 00 00 00 e0 90 54 70 3f 00 00 00 20 22 60 1e 3f
       0.003986898344010115 0.00011587341577978805
000120 00 00 00 c0 6d ce 16 3f 00 00 00 c0 b6 46 50 3f
       8.699936734046787e-05 0.0009934219997376204
000130 00 00 00 80 83 c5 f0 3e 00 00 00 c0 6d 26 f4 3e
       1.5994584828149527e-05 1.9216644432162866e-05
000140 00 00 00 a0 69 01 76 3f 00 00 00 20 ae 2a cc 3e
       0.005372440908104181 3.3577346130186925e-06
000150 00 00 00 e0 0c f5 4f 3f 00 00 00 40 2e 9a 20 3f
       0.0009752571932040155 0.00012666525435633957
000160 00 00 00 20 5f b5 16 3f 00 00 00 e0 cd ae 4a 3f
       8.662598702358082e-05 0.0008142953156493604
000170 00 00 00 c0 d9 a8 de 3e 00 00 00 60 ff 9f f8 3e
       7.30981173546752e-06 2.348422094655689e-05
000180 00 00 00 40 b4 75 7d 3f 00 00 00 40 5c f8 1c 3f
       0.007192329503595829 0.00011051238107029349
000190 00 00 00 20 2e 30 66 3f 00 00 00 e0 a6 d4 71 3f
       0.0027085209731012583 0.004353191237896681
0001a0 00 00 00 a0 aa 6a 21 3f 00 00 00 80 d4 0d 7b 3f
       0.00013287861656863242 0.006604986265301704
0001b0 00 00 00 80 ae 37 4a 3f 00 00 00 40 c4 73 2a 3f
       0.0008000948000699282 0.0002018143713939935
0001c0 00 00 00 80 0e 56 09 3f 00 00 00 60 fe 5c 75 3f
       4.832488775718957e-05 0.005215638782829046
0001d0 00 00 00 80 49 0a 1b 3f 00 00 00 e0 42 56 f5 3e
       0.00010315011604689062 2.034850876952987e-05
0001e0 00 00 00 80 f0 ea 73 3f 00 00 00 80 a6 2d 71 3f
       0.004862727597355843 0.004193926230072975
0001f0 00 00 00 80 15 33 f7 3e 00 00 00 e0 9c e7 72 3f
       2.2124811948742718e-05 0.004615414422005415
